…
2025-12-13 20:57:13,913 - INFO -   Val:   33
2025-12-13 20:57:13,913 - INFO -   Test:  33
-----------------------------------
2a. Running BASELINE Model...
2025-12-13 20:57:20,787 - INFO - --- BASELINE MODEL TRAINING STARTED ---
2025-12-13 20:57:20,787 - INFO - Baseline Hyperparameters:
2025-12-13 20:57:20,787 - INFO -   EPOCHS: 10
2025-12-13 20:57:20,787 - INFO -   BATCH_SIZE: 16
2025-12-13 20:57:20,787 - INFO -   LEARNING_RATE: 0.001
2025-12-13 20:57:20,788 - INFO - Device: cpu
2025-12-13 20:57:20,821 - INFO - --- Baseline Model Architecture ---
2025-12-13 20:57:20,821 - INFO - CNN(
  (conv1): Conv2d(3, 8, kernel_size=(3, 3), stride=(1, 1), padding=(1, 1))
  (conv2): Conv2d(8, 16, kernel_size=(3, 3), stride=(1, 1), padding=(1, 1))
  (conv3): Conv2d(16, 32, kernel_size=(3, 3), stride=(1, 1), padding=(1, 1))
  (pool): MaxPool2d(kernel_size=2, stride=2, padding=0, dilation=1, ceil_mode=False)
  (fc1): Linear(in_features=25088, out_features=128, bias=True)
  (fc2): Linear(in_features=128, out_features=3, bias=True)
)
2025-12-13 20:57:20,821 - INFO - --- Parameter Count ---
2025-12-13 20:57:20,821 - INFO -   Total Parameters:         3217811
2025-12-13 20:57:20,821 - INFO -   Trainable Parameters:     3217811
2025-12-13 20:57:20,821 - INFO -   Non-trainable Parameters: 0
2025-12-13 20:57:20,822 - INFO - Starting baseline training...
2025-12-13 20:57:54,285 - INFO - Epoch 1/10 - Train Loss: 1.0702 - Train Acc: 0.3891 - Val Loss: 0.9647 - Val Acc: 0.4545
…
  0%|          | 0.00/44.7M [00:00<?, ?B/s]  5%|▌         | 2.25M/44.7M [00:00<00:01, 23.2MB/s] 14%|█▍        | 6.25M/44.7M [00:00<00:01, 34.0MB/s] 22%|██▏       | 10.0M/44.7M [00:00<00:00, 36.4MB/s] 30%|███       | 13.5M/44.7M [00:00<00:00, 34.7MB/s] 39%|███▊      | 17.2M/44.7M [00:00<00:00, 35.8MB/s] 47%|████▋     | 20.9M/44.7M [00:00<00:00, 36.4MB/s] 55%|█████▍    | 24.4M/44.7M [00:00<00:00, 35.8MB/s] 63%|██████▎   | 28.1M/44.7M [00:00<00:00, 36.5MB/s] 71%|███████   | 31.8M/44.7M [00:00<00:00, 36.6MB/s] 79%|███████▉  | 35.4M/44.7M [00:01<00:00, 36.8MB/s] 87%|████████▋ | 39.0M/44.7M [00:01<00:00, 37.0MB/s] 96%|█████████▌| 42.9M/44.7M [00:01<00:00, 38.0MB/s]100%|██████████| 44.7M/44.7M [00:01<00:00, 36.4MB/s]
2025-12-13 21:02:31,604 - INFO - --- ResNet18 Model Architecture ---
2025-12-13 21:02:31,605 - INFO - ResNet(
  (conv1): Conv2d(3, 64, kernel_size=(7, 7), stride=(2, 2), padding=(3, 3), bias=False)
  (bn1): BatchNorm2d(64, eps=1e-05, momentum=0.1, affine=True, track_running_stats=True)
  (relu): ReLU(inplace=True)
  (maxpool): MaxPool2d(kernel_size=3, stride=2, padding=1, dilation=1, ceil_mode=False)
  (layer1): Sequential(
    (0): BasicBlock(
      (conv1): Conv2d(64, 64, kernel_size=(3, 3), stride=(1, 1), padding=(1, 1), bias=False)
      (bn1): BatchNorm2d(64, eps=1e-05, momentum=0.1, affine=True, track_running_stats=True)
      (relu): ReLU(inplace=True)
      (conv2): Conv2d(64, 64, kernel_size=(3, 3), stride=(1, 1), padding=(1, 1), bias=False)
      (bn2): BatchNorm2d(64, eps=1e-05, momentum=0.1, affine=True, track_running_stats=True)
    )
    (1): BasicBlock(
      (conv1): Conv2d(64, 64, kernel_size=(3, 3), stride=(1, 1), padding=(1, 1), bias=False)
      (bn1): BatchNorm2d(64, eps=1e-05, momentum=0.1, affine=True, track_running_stats=True)
      (relu): ReLU(inplace=True)
      (conv2): Conv2d(64, 64, kernel_size=(3, 3), stride=(1, 1), padding=(1, 1), bias=False)
      (bn2): BatchNorm2d(64, eps=1e-05, momentum=0.1, affine=True, track_running_stats=True)
    )
  )
  (layer2): Sequential(
    (0): BasicBlock(
      (conv1): Conv2d(64, 128, kernel_size=(3, 3), stride=(2, 2), padding=(1, 1), bias=False)
      (bn1): BatchNorm2d(128, eps=1e-05, momentum=0.1, affine=True, track_running_stats=True)
      (relu): ReLU(inplace=True)
      (conv2): Conv2d(128, 128, kernel_size=(3, 3), stride=(1, 1), padding=(1, 1), bias=False)
      (bn2): BatchNorm2d(128, eps=1e-05, momentum=0.1, affine=True, track_running_stats=True)
      (downsample): Sequential(
        (0): Conv2d(64, 128, kernel_size=(1, 1), stride=(2, 2), bias=False)
        (1): BatchNorm2d(128, eps=1e-05, momentum=0.1, affine=True, track_running_stats=True)
      )
    )
    (1): BasicBlock(
      (conv1): Conv2d(128, 128, kernel_size=(3, 3), stride=(1, 1), padding=(1, 1), bias=False)
      (bn1): BatchNorm2d(128, eps=1e-05, momentum=0.1, affine=True, track_running_stats=True)
      (relu): ReLU(inplace=True)
      (conv2): Conv2d(128, 128, kernel_size=(3, 3), stride=(1, 1), padding=(1, 1), bias=False)
      (bn2): BatchNorm2d(128, eps=1e-05, momentum=0.1, affine=True, track_running_stats=True)
    )
  )
  (layer3): Sequential(
    (0): BasicBlock(
      (conv1): Conv2d(128, 256, kernel_size=(3, 3), stride=(2, 2), padding=(1, 1), bias=False)
      (bn1): BatchNorm2d(256, eps=1e-05, momentum=0.1, affine=True, track_running_stats=True)
      (relu): ReLU(inplace=True)
      (conv2): Conv2d(256, 256, kernel_size=(3, 3), stride=(1, 1), padding=(1, 1), bias=False)
      (bn2): BatchNorm2d(256, eps=1e-05, momentum=0.1, affine=True, track_running_stats=True)
      (downsample): Sequential(
        (0): Conv2d(128, 256, kernel_size=(1, 1), stride=(2, 2), bias=False)
        (1): BatchNorm2d(256, eps=1e-05, momentum=0.1, affine=True, track_running_stats=True)
      )
    )
    (1): BasicBlock(
      (conv1): Conv2d(256, 256, kernel_size=(3, 3), stride=(1, 1), padding=(1, 1), bias=False)
      (bn1): BatchNorm2d(256, eps=1e-05, momentum=0.1, affine=True, track_running_stats=True)
      (relu): ReLU(inplace=True)
      (conv2): Conv2d(256, 256, kernel_size=(3, 3), stride=(1, 1), padding=(1, 1), bias=False)
      (bn2): BatchNorm2d(256, eps=1e-05, momentum=0.1, affine=True, track_running_stats=True)
    )
  )
  (layer4): Sequential(
    (0): BasicBlock(
      (conv1): Conv2d(256, 512, kernel_size=(3, 3), stride=(2, 2), padding=(1, 1), bias=False)
      (bn1): BatchNorm2d(512, eps=1e-05, momentum=0.1, affine=True, track_running_stats=True)
      (relu): ReLU(inplace=True)
      (conv2): Conv2d(512, 512, kernel_size=(3, 3), stride=(1, 1), padding=(1, 1), bias=False)
      (bn2): BatchNorm2d(512, eps=1e-05, momentum=0.1, affine=True, track_running_stats=True)
      (downsample): Sequential(
        (0): Conv2d(256, 512, kernel_size=(1, 1), stride=(2, 2), bias=False)
        (1): BatchNorm2d(512, eps=1e-05, momentum=0.1, affine=True, track_running_stats=True)
      )
    )
    (1): BasicBlock(
      (conv1): Conv2d(512, 512, kernel_size=(3, 3), stride=(1, 1), padding=(1, 1), bias=False)
      (bn1): BatchNorm2d(512, eps=1e-05, momentum=0.1, affine=True, track_running_stats=True)
      (relu): ReLU(inplace=True)
      (conv2): Conv2d(512, 512, kernel_size=(3, 3), stride=(1, 1), padding=(1, 1), bias=False)
      (bn2): BatchNorm2d(512, eps=1e-05, momentum=0.1, affine=True, track_running_stats=True)
    )
  )
  (avgpool): AdaptiveAvgPool2d(output_size=(1, 1))
  (fc): Linear(in_features=512, out_features=3, bias=True)
)
2025-12-13 21:02:31,605 - INFO - --- Parameter Count ---
2025-12-13 21:02:31,605 - INFO -   Total Parameters:         11178051
2025-12-13 21:02:31,605 - INFO -   Trainable Parameters:     11178051
2025-12-13 21:02:31,605 - INFO -   Non-trainable Parameters: 0
2025-12-13 21:04:50,268 - INFO - Epoch 1/30 - Train Loss: 1.2192 - Train Acc: 0.3645 - Val Loss: 1.1285 - Val Acc: 0.3636
…
